Actor_Critic_RL/actor_model.pth (torch, 2693 bytes, 4 tensors)

fc1.weight f4 [8, 4]
00000000: d1dd 2abd 438b 30bf 7e74 fbbf 0ae1 b4bf
00000010: f16e 75be b44c ebbe bddc 39bf ca34 a33d
00000020: dd93 373e 9e8a 99be fe9f 8c3e 83d2 64be
00000030: 5742 afbe 2627 36bf a5b4 01bf 6411 70bf
00000040: d612 e63e 9b84 5cbd be1f 223f 5065 9fbe
00000050: 9a3f 8cbe af06 7cbb 272b e1bf f9c4 afbf
00000060: 1f5c fd3e 452e 0ebf b345 a3bf 6126 1abf
00000070: f8a0 f8bb 24b1 8bbd 5391 b23f 531b 993f
-0.041715447 -0.68962497 -1.9644926 -1.4131176 -0.23968102 -0.45956957 -0.72602445 0.07969053
0.17927499 -0.2998857 0.27465814 -0.22345929 -0.342303 -0.71153486 -0.50666267 -0.93776536
0.44936246 -0.0538374 0.63329685 -0.31131983 -0.27392274 -0.0038456132 -1.7591294 -1.3731986
0.49484345 -0.5553935 -1.2755646 -0.6021481 -0.0075875483 -0.06820896 1.39506 1.1961464

fc1.bias f4 [8]
00000000: 74ff 123f 51b7 30be 7642 d4be 9e0f b23e
00000010: 66fd cabd 9dab 203e ae82 da3e b384 463f
0.5742104 -0.1725743 -0.41456956 0.3477754 -0.09911613 0.15690465 0.42677826 0.7754623

fc2.weight f4 [2, 8]
00000000: 7f6b 123f 0fe7 983e ec01 803e 7786 013f
00000010: c5d1 0dbe 05f8 6a3f 2ff6 7d3f 7ff2 90bf
00000020: 151a 6cbf 0969 01bd f650 853e c5d8 bfbe
00000030: ef39 013f b39e d2be cf20 21bf 4185 8d3f
0.57195276 0.29863784 0.25001466 0.505958 -0.13849552 0.917847 0.9920377 -1.1324004
-0.922273 -0.03159431 0.2603833 -0.3747007 0.50479025 -0.41136703 -0.62940687 1.1056291

fc2.bias f4 [2]
00000000: 107c ecbe bff9 783e
-0.46188402 0.2431402
