Actor_Critic_RL/actor_model.pth (torch, 2693 bytes, 4 tensors)

fc1.weight f4 [8, 4]
0	0x3dbc38b5	0.091905035
1	0xbf1ca4bb	-0.6118886
2	0xbfe75cb8	-1.807517
3	0xbf998217	-1.1992825
4	0xbddb9754	-0.10722223
5	0xbf4663e1	-0.77496153
6	0xbf83f03d	-1.030769
7	0x3e821ccc	0.25412595
8	0x3e50b756	0.20382437
9	0xbe9d79cf	-0.30756995
10	0x3e95ebba	0.29281408
11	0xbe4d91ff	-0.20075224
12	0xbe6dd444	-0.23225504
13	0xbf37439a	-0.71587527
14	0xbf116c62	-0.56806004
15	0xbf3b5d72	-0.7318946
16	0x3e3e1f74	0.18566686
17	0xbe848d3b	-0.25889
18	0x3f052fb3	0.5202591
19	0xbea2ab08	-0.3177111
20	0xbe91c5ab	-0.2847112
21	0xbd2cc51d	-0.04218017
22	0xbfe8e65a	-1.8195298
23	0xbf94616c	-1.1592231
24	0x3ee795c7	0.4523146
25	0xbf07e0f4	-0.53077626
26	0xbf6c2465	-0.92243034
27	0xbec9a900	-0.3938675
28	0xbe07367c	-0.13204378
29	0xbe110068	-0.14160311
30	0x3f9bb0d5	1.216334
31	0x3f7c5a02	0.9857484

fc1.bias f4 [8]
0	0x3f1ef464	0.6209166
1	0xbca2d979	-0.01987909
2	0xbead8861	-0.3389311
3	0x3f0082d0	0.50199604
4	0xbeb68f0c	-0.3565601
5	0x3e6dd85e	0.23227069
6	0x3eefd3f9	0.4684141
7	0x3f3c4056	0.7353567

fc2.weight f4 [2, 8]
0	0x3f3c6e3f	0.7360572
1	0x3f09b5e5	0.53793174
2	0x3e823bad	0.25436154
3	0x3f57d066	0.84302366
4	0x3dda2c62	0.106529966
5	0x3f82f58d	1.0231186
6	0x3f6165a6	0.8804573
7	0xbf886fd8	-1.0659132
8	0xbf8b0e63	-1.0863765
9	0xbe8ab1d4	-0.27088797
10	0x3e831736	0.25603646
11	0xbf363655	-0.71176654
12	0x3e84ffde	0.2597646
13	0xbf0441c5	-0.51662856
14	0xbf049078	-0.5178294
15	0x3f85029d	1.0391423

fc2.bias f4 [2]
0	0xbed76a7c	-0.4207343
1	0x3e4ed60b	0.20198838
