Actor_Critic_RL/actor_model.pth (torch, 2693 bytes, 4 tensors)

fc1.weight f4 [8, 4]
00000000: eaed ad3d 862b 0fbf 04cf edbf 4fd4 babf
00000010: 222f 45be 4252 e1be e703 48bf 8b10 4b3d
00000020: 55ed 673e dc76 8dbe 4494 a43e 167a 67be
00000030: 660d 90be e98a 27bf dce1 ebbe 9c4d 71bf
00000040: 741f 3e3e 3b8d 84be b32f 053f 08ab a2be
00000050: 44ef 54be 3d3a 8a3d 2663 dbbf fe09 b3bf
00000060: 892e 193f d917 b7be 145d 89bf 5ec6 36bf
00000070: 73a7 03be f556 3ebe e1b1 a83f db1e 9a3f
0.08492644 -0.55925786 -1.8578801 -1.4596041 -0.19256261 -0.4400807 -0.78130955 0.049576323
0.22649129 -0.27629745 0.32144368 -0.22605166 -0.28135222 -0.65446335 -0.46070755 -0.9425905
0.18566686 -0.25889 0.5202591 -0.3177111 -0.20794398 0.06749389 -1.7139633 -1.3987424
0.5983663 -0.35760382 -1.073153 -0.71396434 -0.12856846 -0.18587859 1.3179284 1.2040666

fc1.bias f4 [8]
00000000: 8003 123f 2997 51be 9916 bcbe f461 383e
00000010: 0c8f b6be 1e4f fc3d 0c31 dc3e 39d6 423f
0.5703659 -0.2046782 -0.3673599 0.18006116 -0.3565601 0.12319778 0.4300617 0.7610813

fc2.weight f4 [2, 8]
00000000: 8053 043f 5e9d 803e d34c 923e 8761 e33e
00000010: 622c da3d 6f5a 663f f4ec 803f 7dcc 94bf
00000020: 1a02 5ebf 87c9 813c 1f0c 663e 562d a0be
00000030: deff 843e dd62 c9be 8304 25bf 3f5f 913f
0.5168991 0.25120062 0.28574237 0.44410345 0.106529966 0.8998174 1.0072312 -1.1624905
-0.86721957 0.015843166 0.22465561 -0.3128459 0.2597646 -0.3933324 -0.6446001 1.1357192

fc2.bias f4 [2]
00000000: 9d27 e2be 8350 643e
-0.44170848 0.22296338
