Actor_Critic_RL/actor_model.pth (torch, 2693 bytes, 4 tensors)

fc1.weight f4 [8, 4]
0.06622198 -0.35439393 1.4502103 0.20258142 0.44538403 0.1684901 -0.18185112 0.2658043
-0.7672404 0.039096233 1.1667743 0.5798339 -0.2262548 0.3208219 1.3639455 0.1835027
-0.5087762 0.38453165 1.1506828 -0.40974692 -0.0032124203 0.3926198 2.443724 1.0406439
-0.06817202 0.18921588 -0.1495553 0.124429256 0.065799 -0.33512083 -2.0505798 -0.6522452
00000000: 649f 873d 1f73 b5be 7ea0 b93f 8171 4f3e
00000010: 6009 e43e ab88 2c3e 2e37 3abe 8017 883e
00000020: de69 44bf 5f23 203d dc58 953f ff6f 143f
00000030: 57af 67be c542 a43e c495 ae3f 22e8 3b3e
00000040: 283f 02bf 55e1 c43e 9349 933f 59ca d1be
00000050: 7887 52bb 7605 c93e f965 1c40 d233 853f
00000060: c69d 8bbd cfc1 413e 0625 19be c4d4 fe3d
00000070: a0c1 863d f594 abbe b33c 03c0 8bf9 26bf

fc1.bias f4 [8]
0.1639921 -0.27020302 0.3004164 0.25093815 0.02542991 0.5525748 -0.4377444 0.7974956
00000000: 8ced 273e 0d58 8abe 2ed0 993e f77a 803e
00000010: 6352 d03c 8b75 0d3f 0920 e0be ac28 4c3f

fc2.weight f4 [2, 8]
0.34575292 0.33001888 0.0577263 -0.3174722 -0.5109638 -1.1205477 -0.24295096 0.7118002
0.22111301 -0.32991576 0.16690385 0.4007922 0.771543 0.64401925 -0.20239182 -0.6621245
00000000: 8706 b13e 3cf8 a83e 6a72 6c3d b78b a2be
00000010: 86ce 02bf 1b6e 8fbf 23c8 78be 8a38 363f
00000020: 736b 623e b8ea a8be d8e8 2a3e a334 cd3e
00000030: d883 453f 72de 243f cd3f 4fbe fe80 29bf

fc2.bias f4 [2]
0.38565713 -0.6134196
00000000: da74 c53e 1109 1dbf
