Actor_Critic_RL/critic_model.pth (torch, 2639 bytes, 3 tensors)

fc1.weight f4 [8, 4]
0.30580094 -0.059691995 0.0032346465 0.07970606 -0.04390415 0.18621732 -0.4018669 -0.02797687
-1.2632393 0.82345414 3.5829992 1.4345444 -0.4489049 -0.9809191 0.35212457 -0.5469709
0.21986373 -0.09552088 -0.47304806 0.18469366 0.06945154 -0.032731015 0.79734737 -0.45510295
0.40607664 -0.47851342 -2.9960387 -0.850392 1.3490105 0.15688512 0.9057643 0.09542819
00000000: f191 9c3e 987f 74bd 5dfc 533b ee3c a33d
00000010: d7d4 33bd c1af 3e3e 80c1 cdbe c02f e5bc
00000020: d3b1 a1bf e4cd 523f dc4f 6540 279f b73f
00000030: ddd6 e5be 841d 7bbf ac49 b43e 4906 0cbf
00000040: f523 613e 73a0 c3bd 5b33 f2be 5620 3d3e
00000050: 9c3c 8e3d f510 06bd f51e 4c3f 4103 e9be
00000060: 47e9 cf3e b6ff f4be 19bf 3fc0 4ab3 59bf
00000070: 60ac ac3f 7ea6 203e 2be0 673f db6f c33d

fc1.bias f4 [8]
-0.9025671 -0.6066464 -1.7958634 1.1392288 -1.0886289 -1.1330147 -1.070989 -1.6410204
00000000: a30e 67bf 2e4d 1bbf dade e5bf 40d2 913f
00000010: 3158 8bbf a006 91bf 2b16 89bf f50c d2bf

fc2.weight f4 [1, 8]
0.016787585 -0.10309689 -0.49571455 -0.06919634 -0.11723826 0.036012445 -0.513104 -0.67420465
00000000: 1e86 893c 7624 d3bd 4cce fdbe d0b6 8dbd
00000010: 9d1a f0bd c981 133d c95a 03bf ad98 2cbf
