Actor_Critic_RL/critic_model.pth (torch, 2639 bytes, 3 tensors)

fc1.weight f4 [8, 4]
000000 ce fb 50 3e 28 eb 74 be d7 eb 05 be 78 0a 35 3d
       0.20408556 -0.2391783 -0.13078247 0.044199437
000010 dd e3 9d be 25 20 70 be d0 1c 49 3e 51 bc c3 3c
       -0.30837908 -0.23449762 0.19639897 0.023893507
000020 40 ce 2f 3f 9b 50 f5 be 76 8e e5 3e cf f4 29 be
       0.6867409 -0.4791306 0.44835252 -0.16597293
000030 c8 b4 3e 3e ca 7e 7c be f5 6c 24 3f 77 88 a5 be
       0.1862365 -0.24657741 0.64228755 -0.32330677
000040 68 c2 ae bf 0d b8 31 bf 69 bf 7b bf e3 2c a3 be
       -1.3653078 -0.69421464 -0.98338944 -0.31870183
000050 33 85 f3 3e 23 09 e3 be 12 01 d9 bf 6b ff eb be
       0.4756256 -0.44342908 -1.6953452 -0.46093306
000060 7e f2 fb 3d 9c f9 86 bd a5 cc 33 bf 37 b6 9b bd
       0.12302111 -0.06590578 -0.7023414 -0.07603114
000070 37 ae 97 3e 7c 77 63 bf ae 6e 99 c0 f2 77 12 bf
       0.29625103 -0.88854194 -4.7947607 -0.5721427

fc1.bias f4 [8]
000000 cf c7 44 bf 6a fc 48 bf c2 c8 ce bf d6 3a 82 bf
       -0.76867384 -0.78510153 -1.6155016 -1.0174205
000010 0a aa ff bf 29 d3 e9 bf 85 6c ea bf 77 1f e3 bf
       -1.9973767 -1.8267566 -1.8314368 -1.7743977

fc2.weight f4 [1, 8]
000000 bf ce d1 bd e2 8a 8c be 2a 63 0a 3d ac 8a b1 bd
       -0.10244512 -0.2744971 0.033785976 -0.08669028
000010 09 f5 46 bf 16 21 21 be 2e fa 6e be 01 36 7e be
       -0.77717644 -0.15735278 -0.23337623 -0.24825288
