Actor_Critic_RL/critic_model.pth (torch, 2639 bytes, 3 tensors)

fc1.weight f4 [8, 4]
00000000: f191 9c3e 987f 74bd 5dfc 533b ee3c a33d
00000010: d7d4 33bd c1af 3e3e 80c1 cdbe c02f e5bc
00000020: 3979 c5bf 6643 e23d 3f9c e13f 874e 883e
00000030: 9b19 7abf ffbd 07be f919 26c0 7362 00be
00000040: f523 613e 73a0 c3bd 5b33 f2be 5620 3d3e
00000050: 9c3c 8e3d f510 06bd f51e 4c3f 4103 e9be
00000060: b0e4 883f 7d08 aabf 1a1c 68c0 030a 89bf
00000070: d01d 863f f7b3 2a3f 36c1 1040 f02d 023f
0.30580094 -0.059691995 0.0032346465 0.07970606 -0.04390415 0.18621732 -0.4018669 -0.02797687
-1.5427619 0.110480115 1.7625808 0.26622412 -0.9769532 -0.13256072 -2.5953352 -0.12537555
0.21986373 -0.09552088 -0.47304806 0.18469366 0.06945154 -0.032731015 0.79734737 -0.45510295
1.069479 -1.328384 -3.6267152 -1.070618 1.0477848 0.66680855 2.2617927 0.50851345

fc1.bias f4 [8]
00000000: a30e 67bf 2e4d 1bbf 2436 43c0 2d7b d0bf
00000010: 3158 8bbf a006 91bf a3ae 00c0 bba0 03c0
-0.9025671 -0.6066464 -3.0501795 -1.628759 -1.0886289 -1.1330147 -2.010659 -2.0566852

fc2.weight f4 [1, 8]
00000000: 1e86 893c 7624 d3bd f8eb 30bf 08f9 18bf
00000010: 9d1a f0bd c981 133d e48e 99be 7c9c 4bbf
0.016787585 -0.10309689 -0.6911006 -0.5975499 -0.11723826 0.036012445 -0.2999183 -0.7953565
