Actor_Critic_RL/critic_model.pth (torch, 2639 bytes, 3 tensors)

fc1.weight f4 [8, 4]
000000 f1 91 9c 3e 98 7f 74 bd 5d fc 53 3b ee 3c a3 3d
       0.30580094 -0.059691995 0.0032346465 0.07970606
000010 d7 d4 33 bd c1 af 3e 3e 80 c1 cd be c0 2f e5 bc
       -0.04390415 0.18621732 -0.4018669 -0.02797687
000020 13 30 d2 bf a1 b6 ad 3e 21 78 38 40 a7 99 60 3e
       -1.6420921 0.33928397 2.882332 0.21933614
000030 25 f5 84 bf c0 62 34 3e 0f 64 88 bf 0c 2c 12 3e
       -1.0387312 0.17615795 -1.0655535 0.14274615
000040 f5 23 61 3e 73 a0 c3 bd 5b 33 f2 be 56 20 3d 3e
       0.21986373 -0.09552088 -0.47304806 0.18469366
000050 9c 3c 8e 3d f5 10 06 bd f5 1e 4c 3f 41 03 e9 be
       0.06945154 -0.032731015 0.79734737 -0.45510295
000060 ea 1a f2 3f 61 89 28 bf 03 10 66 c0 98 ab 51 bf
       1.8914464 -0.65834624 -3.5947273 -0.81902456
000070 18 17 a8 3f 0f 2b 81 3e 5d d7 8f 3f bd 6f 33 3e
       1.3132048 0.25228164 1.1237599 0.17523094

fc1.bias f4 [8]
000000 a3 0e 67 bf 2e 4d 1b bf ae f2 f3 bf d7 74 6f bf
       -0.9025671 -0.6066464 -1.9058435 -0.9353766
000010 31 58 8b bf a0 06 91 bf f1 65 8c bf a4 d5 ef bf
       -1.0886289 -1.1330147 -1.096861 -1.8737073

fc2.weight f4 [1, 8]
000000 1e 86 89 3c 76 24 d3 bd 26 fc 5a be 43 5c b9 be
       0.016787585 -0.10309689 -0.2138525 -0.36203203
000010 9d 1a f0 bd c9 81 13 3d e7 ca 5a bf 37 e4 48 bf
       -0.11723826 0.036012445 -0.85465854 -0.7847323
